MODEL/data/trained/uigen_model.pt (torch, 248198 bytes, 11 tensors)

text_embedding.weight f4 [326, 32]
0.0 0.0 0.0 0.0 0.0 0.0 0.0 0.0
0.0 0.0 0.0 0.0 0.0 0.0 0.0 0.0
0.0 0.0 0.0 0.0 0.0 0.0 0.0 0.0
0.0 0.0 0.0 0.0 0.0 0.0 0.0 0.0
1.7018595 1.1690516 -1.1797869 0.058855053 -1.6362305 1.1333057 -0.046124823 -1.3223736
-0.47846204 1.088912 -0.69601595 1.1847987 1.8196571 0.96564484 -0.21679133 0.034533158
0.05743391 -1.5721068 -0.36992875 0.3134177 -0.16676831 1.4811279 0.1385389 -0.5763662
-0.37139753 -0.2407159 0.18493554 -1.9438463 -2.305992 -0.38901916 -0.10587578 -0.41569564
-1.2228076 0.8189518 -0.49170777 1.8200563 1.3104559 0.11293024 -0.46540463 -0.0362227
-0.7124814 1.5499512 -1.403654 -0.7365249 1.0316896 -1.3125217 0.97331053 -0.21289422
-0.76675373 -1.858804 0.22649488 0.30634677 -0.16248244 0.24715166 -0.24431975 0.14661087
0.014287619 0.104580164 0.036526054 0.017942544 0.3669439 -0.9737563 0.26380977 -0.5090062
-2.3007426 0.35014457 0.58650476 0.5128444 -0.14348708 -0.09482566 -0.6783008 -0.77606875
-0.055200536 1.4490733 0.28705072 1.4948668 -0.020872718 0.22658746 0.5067182 -2.2414412
-0.68937033 -0.6637946 1.1163566 0.33552432 -0.903186 1.9747573 -0.040225584 -2.3561187
0.3948277 -0.21255615 0.8012437 -0.24938235 -0.3835613 1.8517828 0.012196366 -0.25121737
-0.73562574 0.99066305 -0.64712775 0.7586061 0.52040493 0.81664115 -0.31711873 -0.8884221
-0.72165585 0.32723486 1.2235669 1.7902405 -0.5637609 1.292408 0.52886325 1.1473107
-1.3722421 -0.16574329 0.17939019 -1.5691494 0.12378565 1.0144322 -1.1804521 -2.547197
-1.3129039 1.1735561 -0.36437395 -0.19802757 1.1601967 -1.1381236 0.31004614 1.6429608
0.012009951 0.66666955 0.51612043 -1.3041626 1.471885 0.2543131 -0.7058191 0.81898147
0.1579183 -1.6769323 -0.6864711 -0.31177074 -2.0254934 -0.112545095 -0.38568446 0.2915361
-0.25396678 0.2815948 -0.6091125 -0.71696824 -0.08320353 -1.1561066 0.6070744 1.8705187
-2.1559823 1.1320132 2.5104349 2.516302 -1.9874142 1.3760839 1.1129891 -0.68036443
0.5691627 -1.2692599 1.244304 0.09765252 -2.4308789 0.3767828 -0.13910332 0.15895164
-0.797325 1.640594 0.99696016 0.77039164 -0.3796561 0.2047152 0.36802846 -1.06948
-0.595544 1.1840127 0.8739686 1.0791899 -1.477425 1.4998971 -0.43849292 0.8938991
1.9786159 0.057124883 0.50496453 -1.5436113 -0.50125355 -0.47743353 0.25311887 2.2014375
2.256303 -1.4193274 -1.1685201 0.78024346 1.0101731 -0.92965925 -1.3107033 0.81956095
1.3985469 0.7772985 0.98557985 -0.09468661 -0.7435079 -0.51634765 0.6125802 -0.35175768
-0.72978896 0.4225716 0.45412305 1.6287469 -0.34549615 -0.93108666 -0.47755635 -0.34935868
1.2998317 -0.62275803 3.4194274 0.07482331 0.5214934 -1.5433891 1.1456795 -0.83365965
00000000: 0000 0000 0000 0000 0000 0000 0000 0000
00000010: 0000 0000 0000 0000 0000 0000 0000 0000
00000020: 0000 0000 0000 0000 0000 0000 0000 0000
00000030: 0000 0000 0000 0000 0000 0000 0000 0000
00000040: 0000 0000 0000 0000 0000 0000 0000 0000
00000050: 0000 0000 0000 0000 0000 0000 0000 0000
00000060: 0000 0000 0000 0000 0000 0000 0000 0000
00000070: 0000 0000 0000 0000 0000 0000 0000 0000
00000080: 88d6 d93f 7ca3 953f 4203 97bf ff11 713d
00000090: 0070 d1bf 2910 913f 62ed 3cbd 8a43 a9bf
000000a0: faf8 f4be 7861 8b3f 1a2e 32bf 7ca7 973f
000000b0: 86ea e83f 8034 773f 8cfe 5dbe a472 0d3d
000000c0: d23f 6b3d cc3a c9bf 4d67 bdbe 4978 a03e
000000d0: 50c5 2abe 9995 bd3f 24dd 0d3e bc8c 13bf
000000e0: d127 bebe 3b7e 76be be5f 3d3e f5cf f8bf
000000f0: 5f95 13c0 852d c7be 67d5 d8bd 0fd6 d4be
00000100: f684 9cbf d3a6 513f 1fc1 fbbe 9bf7 e83f
00000110: 05bd a73f f847 e73d 8449 eebe 415e 14bd
00000120: 2e65 36bf cd64 c63f efaa b3bf e58c 3cbf
00000130: 680e 843f b600 a8bf e12a 793f f100 5abe
00000140: f949 44bf 4aed edbf 46ee 673e 7cd9 9c3e
00000150: cc61 26be 5315 7d3e f52e 7abe 2921 163e
00000160: 9e16 6a3c 202e d63d 589c 153d 3efc 923c
00000170: 12e0 bb3e 1848 79bf 1312 873e 3b4e 02bf
00000180: 5e3f 13c0 2646 b33e 2d25 163f c549 033f
00000190: 47ee 12be f533 c2bd 1fa5 2dbf 71ac 46bf
000001a0: f519 62bd 3c7b b93f 50f8 923e cc57 bf3f
000001b0: 43fd aabc 8b06 683e 49b8 013f c673 0fc0
000001c0: 937a 30bf 71ee 29bf c6e4 8e3f d8c9 ab3e
000001d0: 3337 67bf d9c4 fc3f 95c3 24bd a6ca 16c0
000001e0: db26 ca3e 52a8 59be 4f1e 4d3f 165e 7fbe
000001f0: 2662 c4be 3807 ed3f 44d3 473c 909f 80be
00000200: f851 3cbf 189c 7d3f 2aaa 25bf 0234 423f
00000210: 4239 053f 650f 513f 635d a2be a16f 63bf
00000220: 70be 38bf 548b a73e d79d 9c3f 9a26 e53f
00000230: a252 10bf a06d a53f 9563 073f 14db 923f
00000240: a1a5 afbf 9cb8 29be 10b2 373e e3d9 c8bf
00000250: 5583 fd3d ead8 813f 0e19 97bf 4705 23c0
00000260: 3c0d a8bf 1637 963f 398f babe bdc7 4abe
00000270: 5381 943f 09ae 91bf 5ebe 9e3e 8a4c d23f
00000280: 63c5 443c dbaa 2a3f 7820 043f cdee a6bf
00000290: ba66 bc3f 5435 823e 8fb0 34bf c5a8 513f
000002a0: 56b5 213e b8a5 d6bf 92bc 2fbf 6aa0 9fbe
000002b0: afa1 01c0 0b7e e6bd 6f78 c5be 3844 953e
000002c0: ef07 82be 322d 903e ccee 1bbf 3b8b 37bf
000002d0: 9d66 aabd 4dfb 93bf 3a69 1b3f 286d ef3f
000002e0: 9dfb 09c0 cfe5 903f f7aa 2040 180b 2140
000002f0: 9763 febf 8423 b03f 6d76 8e3f 5d2c 2ebf
00000300: a6b4 113f 1c77 a2bf 5a45 9f3f 0bfe c73d
00000310: 8593 1bc0 ade9 c03e 1a71 0ebe 38c4 223e
00000320: 7e1d 4cbf fcfe d13f c838 7f3f 6338 453f
00000330: 4962 c2be dda0 513e 3a6e bc3e b8e4 88bf
00000340: 9275 18bf ba8d 973f 68bc 5f3f e522 8a3f
00000350: 431c bdbf a1fc bf3f 2582 e0be 92d6 643f
00000360: 4943 fd3f c8fb 693d 5b45 013f 0e95 c5bf
00000370: 2752 00bf 2b72 f4be cc98 813e 5ae4 0c40
00000380: 4567 1040 85ac b5bf 1192 95bf 09be 473f
00000390: 5a4d 813f 26fe 6dbf 20c5 a7bf bfce 513f
000003a0: 9603 b33f 09fd 463f f64e 7c3f 0eeb c1bd
000003b0: 8956 3ebf 5c2f 04bf 0ed2 1c3f 9519 b4be
000003c0: 73d3 3abf 4e5b d83e d182 e83e c77a d03f
000003d0: dfe4 b0be b25b 6ebf 4482 f4be 24df b2be
000003e0: e360 a63f 126d 1fbf e6d7 5a40 f73c 993d
000003f0: 9780 053f c68d c5bf a0a5 923f b86a 55bf

encoder.weight_ih_l0 f4 [256, 32]
-0.0012798524 -0.07921194 -0.012757262 0.10360442 -0.090929374 -0.052723285 -0.017882641 0.15817524
-0.00906583 0.14934443 -0.08393675 0.0057631796 0.103865445 0.0061710207 0.1126038 -0.009684085
0.107799724 0.06533099 -0.07081243 0.02133167 0.008447217 -0.01539214 -0.024094226 0.038928356
-0.06556567 0.13956779 0.05576877 -0.04758579 -0.061403897 0.06489907 -0.02978719 -0.013094995
-0.010530233 -0.080988415 0.028402098 0.087903924 0.03357106 -0.091602206 -0.15658115 0.02231926
0.039534856 0.10889266 0.09407111 0.031906992 0.030437894 -0.037456367 0.11357137 -0.12419231
-0.10072619 0.05514774 -0.107475474 0.11860205 0.15077108 0.021031568 0.010804492 -0.12532617
0.042871978 -0.04006224 -0.051620815 0.0015104134 -0.06189793 0.023053704 -0.07305491 -0.089185156
-0.11382717 -0.038346726 -0.06101908 -0.06310233 0.028039485 -0.052808814 0.060850095 0.11292896
0.051295444 0.012506382 0.05004605 -0.1324041 -0.013973477 -0.09178653 -0.05758922 -0.04139044
-0.077286616 -0.0757052 -0.026695596 0.07221669 -0.0049337056 0.06488104 -0.03839013 -0.0852811
0.08778154 0.015980205 0.04793476 0.01436699 0.06560681 0.017854996 -0.026748583 -0.05392745
0.032345615 -0.008232119 -0.056051347 -0.018017657 -0.06743156 -0.0020489902 -0.0788378 0.019429578
-0.1051443 0.058770526 0.09052694 -0.02776316 -0.08789544 -0.05640187 0.0022169568 0.0068157325
0.09930601 -0.03942437 -0.0799429 0.016147295 -0.021138716 -0.10846682 -0.07321246 0.07292068
0.11592464 0.040565897 0.08253258 0.1295524 -0.11560038 0.02738296 -0.0404439 0.010844296
-0.013604068 0.064740576 0.08255438 0.059900135 0.04875723 0.042145573 -0.033703066 0.106803365
0.028750535 0.13597739 -0.046337314 0.12548308 -0.08195798 0.10783305 -0.053198654 -0.07368615
-0.00038477447 -0.08824991 0.0477968 0.054144632 -0.019704536 0.07920769 -0.15074185 0.14702083
-0.1082113 0.0068664937 -0.06501969 0.0854292 0.14692557 0.0077555533 -0.016187133 -0.1196703
-0.09738881 0.09978005 0.024986401 -0.09313781 0.1569048 -0.022878489 -0.05247633 -0.13828576
0.07568783 -0.03808363 0.027839115 0.08407596 0.060862813 0.060269617 0.1430275 -0.13894819
0.04401941 -0.037512776 0.064153224 -0.015571787 -0.10499482 -0.049922917 0.09477901 -0.050605502
0.048297543 -0.05995271 -0.026111314 0.08553949 0.06352483 -0.14476496 -0.032005243 -0.060321443
0.01896731 -0.111767896 -0.12917072 0.06503219 -0.07907951 0.006290759 -0.13140057 -0.004631559
-0.056836 0.11018907 -0.03568479 0.088302605 0.053277325 0.12056138 0.018086284 -0.05564054
0.019184537 -0.010876456 0.060465053 -0.04295194 -0.15245321 -0.04633735 -0.049870633 -0.0067948755
0.07618726 0.12400701 0.020776019 0.105502196 -0.009707845 -0.050778892 0.15435272 0.08685446
0.025305424 -0.10592101 0.06761195 0.066551715 0.09709482 0.06799879 -0.11585809 0.102737576
0.07309406 -0.05039505 0.110223405 -0.07544293 -0.09611257 0.01598423 0.11459372 0.055229124
0.107355155 -0.018805562 -0.034904204 0.16541101 0.06031021 -0.108818054 -0.10564835 -0.14437048
0.13110693 0.15269122 -0.041525982 0.047808863 -0.05962145 0.0929969 0.12562664 -0.07683851
00000000: b8c0 a7ba df39 a2bd d603 51bc 8e2e d43d
00000010: 2e39 babd 5ff4 57bd 9e7e 92bc b1f8 213e
00000020: d988 14bc bfed 183e 08e7 abbd 0ed9 bc3b
00000030: 68b7 d43d 4636 ca3b d29c e63d ffa9 1ebc
00000040: 1ac6 dc3d 41cc 853d 1b06 91bd c1bf ae3c
00000050: 3266 0a3c 502f 7cbc 4161 c5bc 5773 1f3d
00000060: 4b47 86bd dcea 0e3e cb6d 643d 51e9 42bd
00000070: a782 7bbd cee9 843d 4404 f4bc 648c 56bc
00000080: 0087 2cbc 41dd a5bd 84ab e83c f906 b43d
00000090: cf81 093d f099 bbbd cf56 20be e1d6 b63c
000000a0: 4def 213d 1d03 df3d 5ba8 c03d e8b0 023d
000000b0: e458 f93c d96b 19bd 1b98 e83d 8a58 febd
000000c0: 8849 cebd 99e2 613d 1a1c dcbd a2e5 f23d
000000d0: bc63 1a3e 654a ac3c 5305 313c 8155 00be
000000e0: 879a 2f3d 4e18 24bd 5970 53bd 10f9 c53a
000000f0: af88 7dbd 1fdb bc3c d09d 95bd b5a6 b6bd
00000100: 381e e9bd 7511 1dbd 25ef 79bd cb3b 81bd
00000110: 10b3 e53c 0e4e 58bd f33d 793d 4c47 e73d
00000120: 2c1b 523d 91e7 4c3c 16fd 4c3d f194 07be
00000130: 03f1 64bc 94fa bbbd ade2 6bbd 0689 29bd
00000140: 7248 9ebd 540b 9bbd b9b0 dabc 58e6 933d
00000150: ecaa a1bb 5ae0 843d f83e 1dbd dba7 aebd
00000160: cfc6 b33d ebe8 823c 3d57 443d 8663 6b3c
00000170: dd5c 863d a444 923c d81f dbbc 08e3 5cbd
00000180: d67c 043d 02e0 06bc 1996 65bd c499 93bc
00000190: 8f19 8abd 5a48 06bb b675 a1bd c72a 9f3c
000001a0: e555 d7bd 5db9 703d 3066 b93d 916f e3bc
000001b0: 8602 b4bd a605 67bd 5d4a 113b 8256 df3b
000001c0: f360 cb3d 737b 21bd 1ab9 a3bd 5547 843c
000001d0: 1a2b adbc da23 debd 6af0 95bd 7057 953d
000001e0: e669 ed3d 6d28 263d d706 a93d 62a9 043e
000001f0: e4bf ecbd 3b52 e03c 81a8 25bd 46ac 313c
00000200: 99e3 5ebc b596 843d 4512 a93d d859 753d
00000210: a9b5 473d d6a0 2c3d 3a0c 0abd b9bb da3d
00000220: 3e86 eb3c a83d 0b3e 32cc 3dbd a37e 003e
00000230: 96d9 a7bd 93d7 dc3d d5e6 59bd c4e8 96bd
00000240: 8ebb c9b9 5ebc b4bd 94c6 433d c3c6 5d3d
00000250: 686b a1bc a437 a23d 125c 1abe a18c 163e
00000260: e39d ddbd 5300 e13b 0b29 85bd 81f5 ae3d
00000270: a873 163e 4c22 fe3b e19a 84bc b415 f5bd
00000280: c973 c7bd 7c59 cc3d 48b0 cc3c 09bf bebd
00000290: a7ab 203e ab6b bbbc 6cf1 56bd c89a 0dbe
000002a0: 3902 9b3d 95fd 1bbd db0e e43c 0430 ac3d
000002b0: 494b 793d 46dd 763d cd75 123e 6f48 0ebe
000002c0: b24d 343d ffa6 19bd c462 833d cf20 7fbc
000002d0: 8607 d7bd f97b 4cbd 7f1b c23d b747 4fbd
000002e0: a5d3 453d f990 75bd 65e7 d5bc 542f af3d
000002f0: 4e19 823d 443d 14be ee17 03bd 9e13 77bd
00000300: 5561 9b3c 91e6 e4bd 5445 04be 992f 853d
00000310: 70f4 a1bd b622 ce3b df8d 06be 55c4 97bb
00000320: decc 68bd cfaa e13d 372a 12bd ffd7 b43d
00000330: 5339 5a3d e3e8 f63d b029 943c 56e7 63bd
00000340: e428 9d3c 2a33 32bc 34aa 773d 60ee 2fbd
00000350: b21c 1cbe 3ccc 3dbd 2645 4cbd 8ca7 debb
00000360: 1108 9c3d 63f7 fd3d 7832 aa3c 8911 d83d
00000370: a70d 1fbc 87fd 4fbd a40e 1e3e c0e0 b13d
00000380: 524d cf3c 1ded d8bd 2278 8a3d 444c 883d
00000390: a6d9 c63d f342 8b3d 0247 edbd 1468 d23d
000003a0: 57b2 953d 0a6b 4ebd cfbc e13d d381 9abd
000003b0: abd6 c4bd 5cf1 823c 1db0 ea3d ef37 623d
000003c0: 05dd db3d 1f0e 9abc b6f7 0ebd 8161 293e
000003d0: d707 773d 00dc debd 2a5e d8bd dbd5 13be
000003e0: e540 063e 165b 1c3e 2617 2abd 3ad3 433d
000003f0: 9f35 74bd 2975 be3d 45a4 003e 825d 9dbd

encoder.weight_hh_l0 f4 [256, 64]
0.07396577 0.095042236 -0.07942741 0.13339204 -0.025723096 -0.11642767 0.066489354 -0.113624096
-0.032127116 0.14106631 -0.0819943 -0.13864243 -0.07090051 -0.07755807 0.015934736 0.009680381
-0.05087934 0.09545404 -0.08565237 -0.05817437 -0.020465484 -0.1075465 -0.13790889 -0.019737473
-0.03100158 0.020084538 0.06378186 0.04170999 -0.0024627307 0.10292238 -0.06907154 -0.03366096
-0.0038423955 0.049699385 0.09493144 0.04518567 0.042787693 0.10211843 -0.014896973 -0.018168554
-0.13520527 0.114909664 0.02697343 0.09411918 -0.098953694 0.034457795 0.037818246 -0.014672467
0.06459099 -0.07329967 0.08215636 -0.014407142 0.026429279 -0.04259522 0.08565613 -0.0002469803
0.09753865 -0.042815667 -0.033383437 -0.10676258 0.0013534434 -0.0019133255 -0.03122523 -0.021311851
0.07343134 0.010073131 0.022070935 0.041443318 0.07245593 0.069347 -0.14135084 0.05378278
-0.016579749 -0.0630097 0.09278325 0.038087178 0.058771655 -0.09548084 -0.0017038203 -0.0060161096
-0.09486018 -0.045017466 -0.11045617 -0.05057999 -0.056741424 0.0588997 -0.09084289 0.03485902
0.05985477 -0.13457333 -0.10962323 0.10765461 -0.049887102 0.038567394 -0.06508158 -0.027407376
0.03381977 -0.09877323 0.16619152 0.009836715 -0.0319035 0.13679521 0.040046323 -0.015880467
-0.050498344 0.14775705 0.005198959 0.05480459 0.066592604 -0.014662017 0.0905962 -0.008976304
0.04001973 -0.026248803 -0.10776883 0.11800836 -0.09113941 -0.07953551 0.05341065 -0.1438793
0.05189227 -0.09413097 -0.026043696 -0.016001748 0.04819749 0.0007340235 -0.13937375 0.10764986
-0.060402464 0.034387838 -0.11273388 -0.028068796 0.123614065 -0.0872202 -0.06872153 -0.15117277
0.033778686 0.08735472 -0.044708066 0.029169379 0.011925038 -0.08550307 0.0016886581 0.0743273
0.08004696 -0.032576237 -0.1016113 0.05237174 -0.09230331 0.0318026 -0.05994249 -0.12593746
0.105698034 0.07188792 -0.16154227 0.00042129797 -0.012533995 -0.018751927 0.13267928 -0.12584965
0.13927633 0.0016671483 0.11076126 0.025286533 -0.016432617 0.15658528 -0.005755467 0.06426186
0.06010334 0.103619285 -0.14434138 -0.08648512 -0.046268452 0.10323995 0.11628493 -0.11126621
-0.033843856 -0.13677102 0.05816701 0.11425412 0.009555901 -0.029370109 -0.01967206 -0.15370697
0.13503675 -0.07440839 0.104975976 -0.04846498 -0.01594051 -0.06595483 -0.0068474514 0.10559731
0.054793492 0.13545041 -0.06644651 0.060941778 -0.008161171 -0.041236304 -0.12797196 -0.037847973
-0.07068228 4.057699e-05 -0.0042234734 -0.09849493 -0.0899236 0.058853734 -0.11291713 -0.104352504
-0.14068498 -0.004602383 -0.046751324 0.12260111 -0.07494846 0.12771657 0.05421368 0.040108215
-0.024058638 -0.06392139 -0.104962744 0.07942606 0.0017261929 0.054708518 0.14046672 0.005146773
0.12509546 -0.027324397 -0.055104364 0.012848386 -0.04814136 0.09507929 -0.0020728176 0.013747297
-0.03422727 0.1059452 0.08440564 -0.014244113 -0.03380493 -0.05753505 0.073963955 -0.0522029
-0.07098255 -0.057077914 0.04930892 0.04883512 0.045347333 0.023671571 0.07625426 -0.030131042
-0.06190811 -0.13538767 0.102229215 -0.102936216 0.116000175 0.12508588 -0.04738018 -0.04148303
00000000: 5e7b 973d 81a5 c23d d7aa a2bd ec97 083e
00000010: 3eb9 d2bc a171 eebd 922b 883d c0b3 e8bd
00000020: b997 03bd b073 103e a1ec a7bd 48f8 0dbe
00000030: 4934 91bd c4d6 9ebd 9089 823c 769a 1e3c
00000040: db66 50bd 687d c33d 826a afbd 4048 6ebd
00000050: 3ba7 a7bc 5741 dcbd fd37 0dbe 7bb0 a1bc
00000060: 07f7 fdbc 5488 a43c 10a0 823d 18d8 2a3d
00000070: c465 21bb f8c8 d23d 6175 8dbd 13e0 09bd
00000080: b3d0 7bbb 9591 4b3d 6a6b c23d 9c14 393d
00000090: 2642 2f3d 7823 d13d 6f12 74bc 38d6 94bc
000000a0: 4073 0abe c255 eb3d 62f7 dc3c 8fc1 c03d
000000b0: 3ca8 cabd 9e23 0d3d 4ee7 1a3d c964 70bc
000000c0: 4848 843d 231e 96bd 9841 a83d ef0b 6cbc
000000d0: 3782 d83c 5378 2ebd 7b6c af3d 227d 81b9
000000e0: 58c2 c73d 7b5f 2fbd 12bd 08bd 57a6 dabd
000000f0: 0666 b13a 8dc8 faba 0ecc ffbc 3196 aebc
00000100: 2c63 963d c609 253c 1bce b43c 78c0 293d
00000110: c663 943d cd05 8e3d 46be 10be 554b 5c3d
00000120: 41d2 87bc 3b0b 81bd 2505 be3d 4d01 1c3d
00000130: 8cba 703d 758b c3bd b952 dfba c922 c5bb
00000140: 0e46 c2bd 3c64 38bd d836 e2bd f72c 4fbd
00000150: b269 68bd d040 713d d60b babd 55c8 0e3d
00000160: 462a 753d 97cd 09be 2582 e0bd 057a dc3d
00000170: 6b56 4cbd d8f8 1d3d 7e49 85bd 6f85 e0bc
00000180: 9986 0a3d 9f49 cabd 1c2e 2a3e 2c2a 213c
00000190: 3fad 02bd 0b14 0c3e 9d07 243d c117 82bc
000001a0: 5ad7 4ebd a04d 173e 075c aa3b c77a 603d
000001b0: b461 883d f538 70bc 808a b93d 5911 13bc
000001c0: baeb 233d bb07 d7bc e8b5 dcbd 5eae f13d
000001d0: 4da7 babd 83e3 a2bd 20c5 5a3d 1855 13be
000001e0: fd8c 543d bdc7 c0bd 9759 d5bc 1916 83bc
000001f0: bb6a 453d 7c6b 403a feb7 0ebe 8877 dc3d
00000200: 9368 77bd 43da 0c3d 05e1 e6bd 88f0 e5bc
00000210: 5f29 fd3d 81a0 b2bd e0bd 8cbd 09cd 1abe
00000220: 855b 0a3d 08e7 b23d ce1f 37bd 9ff4 ee3c
00000230: 3c61 433c 3c1c afbd f755 dd3a e938 983d
00000240: a9ef a33d a96e 05bd 9619 d0bd c083 563d
00000250: 8509 bdbd 7143 023d 4286 75bd c0f5 00be
00000260: 3678 d83d f939 933d 566b 25be a8e1 dc39
00000270: 635b 4dbc a49d 99bc 14dd 073e bbde 00be
00000280: 749e 0e3e 3784 da3a cdd6 e23d b425 cf3c
00000290: b29d 86bc e457 203e 5b98 bcbb b99b 833d
000002a0: eb2e 763d 5936 d43d 3ace 13be 1c1f b1bd
000002b0: fd83 3dbd 786f d33d cb26 ee3d 8adf e3bd
000002c0: db9f 0abd b40d 0cbe 8840 6e3d 10fe e93d
000002d0: 5b90 1c3c 9599 f0bc 4d27 a1bc 5c65 1dbe
000002e0: 1347 0a3e 6d63 98bd a5fd d63d 3783 46bd
000002f0: ac95 82bc 5313 87bd 9660 e0bb 6743 d83d
00000300: 246f 603d 83b3 0a3e 1c15 88bd 169e 793d
00000310: 6fb6 05bc 66e7 28bd 150b 03be 7a06 1bbd
00000320: dfc1 90bd 3631 2a38 1065 8abb b6b7 c9bd
00000330: dd29 b8bd 9d10 713d 1941 e7bd c4b6 d5bd
00000340: b90f 10be 96cf 96bb 517e 3fbd 4a16 fb3d
00000350: 947e 99bd 22c8 023e 2a0f 5e3d 8348 243d
00000360: 9f16 c5bc 38e9 82bd b5f6 d6bd 21aa a23d
00000370: 6c41 e23a 0a16 603d 82d6 0f3e 43a6 a83b
00000380: 0619 003e 6ad7 dfbc 1db5 61bd 0982 523c
00000390: e02f 45bd eeb8 c23d 1cd8 07bb 583c 613c
000003a0: e531 0cbd ccf9 d83d dddc ac3d 2460 69bc
000003b0: 0a77 0abd dfa9 6bbd 6a7a 973d b5d2 55bd
000003c0: 4d5f 91bd 88ca 69bd 26f8 493d 5607 483d
000003d0: 20be 393d e2ea c13c 322b 9c3d 60d5 f6bc
000003e0: 5c93 7dbd 11a3 0abe 8d5d d13d 39d0 d2bd
000003f0: 8091 ed3d 8316 003e b811 42bd 1cea 29bd

encoder.bias_ih_l0 f4 [256]
0.025111027 0.12038021 0.047326278 0.09938516 -0.057041872 0.122067265 0.05049061 0.024598606
0.031335365 0.06427633 0.053592928 0.11616727 0.05904236 0.12206577 0.112834014 -0.07810099
0.022751873 -0.01749642 0.06836854 0.09136884 0.05430992 -0.055664495 0.04966569 -0.006220014
-0.020239538 0.14821284 0.09347074 0.034326293 -0.08233038 0.05874061 0.065008596 0.033087928
-0.06961207 0.11285335 -0.046920292 0.024621734 0.13953656 0.05561061 -0.03960163 0.057321288
0.040314514 0.043478206 0.074609295 -0.023567965 0.121071376 0.14271474 -0.060118895 0.09648451
0.087163 -0.066347934 0.0040126448 -0.09122428 0.11101836 0.09931921 -0.015577508 0.11805294
0.14966226 -0.08390531 0.089503884 0.14169809 0.09491756 0.112768054 0.094506174 -0.05871699
0.060704637 0.07874051 0.110692166 0.1378342 -0.11462929 0.025959004 0.032022554 0.08969739
0.11640253 0.08587942 -0.023365522 0.06882195 0.107958116 0.07654637 0.010528607 0.027259015
0.094547525 0.14065705 0.03611056 -0.03355286 -0.098595746 -0.051097445 0.15566349 0.030726988
-0.042721 -0.06426746 0.108422615 -0.05873098 0.056453593 -0.0066014654 0.17026846 -0.037401453
-0.0310854 -0.0899585 0.14356229 0.0025305816 0.14667457 0.041576065 0.124831356 0.1210559
0.12578915 0.035062965 -0.056558315 -0.089053795 -0.050483588 0.0774452 0.105437025 0.15382348
-0.0016539125 0.11938886 0.08135196 0.049218673 0.1272013 0.050101873 0.109589264 -0.0035189118
0.094621934 0.108550735 0.14359629 -0.07472052 -0.00743652 0.11471389 0.08058888 0.029879883
0.05897068 -0.06568196 -0.08596413 0.11622737 0.06950222 0.046214793 -0.15348856 0.06965353
0.07660879 -0.06176834 0.022807833 -0.12197055 0.11909178 0.004612533 -0.11813586 0.039543334
0.060037225 0.14354812 -0.0736539 0.15670775 0.05883176 -0.048500594 0.008438118 -0.09203312
0.054864276 -0.004523726 -0.040545955 0.010660234 -0.04842209 0.118687056 -0.04622777 0.007345076
0.16220057 0.11452337 -0.009036612 0.088518955 -0.14080995 0.1337272 -0.054779354 -0.114974424
0.010835681 0.01777226 -0.04130889 0.058605373 -0.10072946 -0.100053586 0.013667624 -0.12521459
-0.025788251 -0.10449655 -0.009637646 -0.040770374 -0.10856621 -0.09991485 -0.035890512 -0.06624661
0.10566971 0.010901983 0.1427927 0.06930554 0.07161105 0.027874382 0.05782704 0.096069574
0.1250187 0.113437004 0.02436548 -0.04735555 -0.05348292 0.10543925 -0.040169965 0.118084
-0.010898568 -0.01828753 0.119077764 -0.03963636 -0.07072681 0.12932312 0.07118456 0.10648203
0.15317059 0.13190225 0.15328768 0.0900598 0.10392234 0.017555473 -0.05068195 0.08829398
0.10538533 0.12570994 -0.04330317 -0.013647207 0.0052309344 -0.0537167 0.08370073 0.11305769
0.10630883 0.15149039 0.035671256 0.06597827 0.10586102 0.13852018 -0.03121585 0.13491625
-0.052006245 0.10768823 0.13181226 0.04870379 -0.0071033165 0.057528403 -0.0035563556 0.066721976
-0.12057993 0.1368045 -0.0126653705 0.009473581 0.15791042 -0.012964331 -0.06595835 0.049214147
0.0037671176 0.15059774 -0.06370635 0.12499848 0.17222852 0.04624663 -0.055775914 0.18866643
00000000: a4b5 cd3c e689 f63d 33d9 413d 728a cb3d
00000010: bda4 69bd 67fe f93d 3ecf 4e3d 0483 c93c
00000020: 8359 003d 4fa3 833d 4284 5b3d 1be9 ed3d
00000030: 67d6 713d 9efd f93d 8515 e73d 69f3 9fbd
00000040: 2362 ba3c a754 8fbc ce04 8c3d 961f bb3d
00000050: 1474 5e3d 7400 64bd 406e 4b3d 42d1 cbbb
00000060: 63cd a5bc 1bc5 173e 966d bf3d ba99 0c3d
00000070: d59c a8bd fe99 703d 3a23 853d 3587 073d
00000080: c690 8ebd a81f e73d 7e2f 40bd 85b3 c93c
00000090: ace2 0e3e f3c7 633d 5235 22bd bac9 6a3d
000000a0: d520 253d 3416 323d c2cc 983d 9b11 c1bc
000000b0: 45f4 f73d d023 123e 3b3f 76bd ac99 c53d
000000c0: 8482 b23d 6de1 87bd 817c 833b ccd3 babd
000000d0: 985d e33d df67 cb3d ce38 7fbc bdc5 f13d
000000e0: 1041 193e 8cd6 abbd d04d b73d 4e19 113e
000000f0: 2364 c23d f0f2 e63d 748c c13d 3a81 70bd
00000100: 6da5 783d b442 a13d 93b2 e23d 6924 0d3e
00000110: c3c2 eabd faa7 d43c 152a 033d 44b3 b73d
00000120: 7364 ee3d 8de1 af3d 0d69 bfbc 86f2 8c3d
00000130: 2519 dd3d 58c4 9c3d 2e80 2c3c 4c4e df3c
00000140: 22a2 c13d 6708 103e abe8 133d b96e 09bd
00000150: 91ec c9bd 8e4b 51bd 4066 1f3e 2ab7 fb3c
00000160: 37fc 2ebd a89e 83bd ad0c de3d e58f 70bd
00000170: e23b 673d 1b51 d8bb db5a 2e3e 4432 19bd
00000180: cfa6 febc 293c b8bd fe01 133e 1dd8 253b
00000190: dc31 163e aa4b 2a3d 95a7 ff3d 28ec f73d
000001a0: dfce 003e 2f9e 0f3d b1a9 67bd d661 b6bd
000001b0: e1c7 4ebd 979b 9e3d 5eef d73d e783 1d3e
000001c0: 18c8 d8ba 2682 f43d db9b a63d 8599 493d
000001d0: 0f41 023e 9f37 4d3d 5670 e03d 8b9d 66bb
000001e0: 25c9 c13d d94f de3d e80a 133e 1207 99bd
000001f0: 0dae f3bb 1eef ea3d c80b a53d a8c6 f43c
00000200: 3d8b 713d 4384 86bd f60d b0bd 9e08 ee3d
00000210: 2e57 8e3d b94b 3d3d 1b2c 1dbe 83a6 8e3d
00000220: 12e5 9c3d cd00 7dbd 7ed7 ba3c b2cb f9bd
00000230: 64e6 f33d bb24 973b 37f1 f1bd 31f8 213d
00000240: 98e9 753d 47fe 123e dbd7 96bd ff77 203e
00000250: 92f9 703d 8fa8 46bd 0840 0a3c dc7b bcbd
00000260: 5db9 603d c43b 94bb 8413 26bd 43a8 2e3c
00000270: 3e56 46bd 3312 f33d 5559 3dbd f7ae f03b
00000280: e817 263e 3b8b ea3d 4c0e 14bc 6d49 b53d
00000290: 7c30 10be c8ef 083e 5160 60bd b677 ebbd
000002a0: 2488 313c 2197 913c 8333 29bd 300c 703d
000002b0: 3f4b cebd e5e8 ccbd 2cee 5f3c 4138 00be
000002c0: e241 d3bc 4a02 d6bd 38e7 1dbc d6fe 26bd
000002d0: f657 debd 28a0 ccbd ee01 13bd 4dac 87bd
000002e0: 5c69 d83d 3b9e 323c 4038 123e 10f0 8d3d
000002f0: d0a8 923d d158 e43c 0cdc 6c3d 20c0 c43d
00000300: e704 003e a951 e83d 1d9a c73c e5f7 41bd
00000310: e810 5bbd 89f0 d73d 4389 24bd 06d6 f13d
00000320: e88f 32bc bbcf 95bc 0bdf f33d bc59 22bd
00000330: 38d9 90bd 486d 043e 36c9 913d 4013 da3d
00000340: c0d8 1c3e 6211 073e 72f7 1c3e 4671 b83d
00000350: 3cd5 d43d 7fd0 8f3c e097 4fbd 79d3 b43d
00000360: 44d4 d73d 1bba 003e aa5e 31bd 8998 5fbc
00000370: 4268 ab3b 0b06 5cbd 4a6b ab3d ca8a e73d
00000380: 72b8 d93d 4c20 1b3e 061c 123d 9d1f 873d
00000390: aacd d83d 3cd8 0d3e 62b8 ffbc 7c27 0a3e
000003a0: 8004 55bd a68b dc3d cbf9 063e a07d 473d
000003b0: f0c2 e8bb e7a2 6b3d bf11 69bb 88a5 883d
000003c0: 9cf2 f6bd 7b16 0c3e 6a82 4fbc 1437 1b3c
000003d0: 45b3 213e 5868 54bc 2c15 87bd c694 493d
000003e0: bfe1 763b 4b36 1a3e 7a78 82bd 34ff ff3d
000003f0: ac5c 303e 1b6d 3d3d 4975 64bd c631 413e

encoder.bias_hh_l0 f4 [256]
0.13065386 0.1140735 -0.003942229 -0.03776912 0.0023712895 0.028139833 0.16493963 0.1353117
0.05049968 0.00837708 0.082116984 0.14618585 -0.02596654 0.07944977 0.011665228 0.119826205
-0.044061404 0.07562922 0.002037868 0.1641599 0.06370718 0.1002771 0.10388976 0.0027081948
0.06789128 0.11909902 -0.054038286 0.08999901 -0.039360594 -0.0949924 -0.03980494 -0.016588999
-0.036360852 0.11507347 0.123654336 0.061627176 0.16499664 0.14458814 0.13451338 -0.037187107
0.14122824 0.09420669 -0.015342091 0.16380441 0.049619637 0.12869519 0.017358426 0.057189845
0.13845463 0.03584684 0.10251327 -0.09598857 0.1171626 -0.0018473625 0.07123474 0.047773726
0.063657515 0.060096543 -0.017081877 0.069826834 0.12801866 -0.032557666 -0.05308505 0.069928065
-0.022777494 -0.0003285295 -0.02294475 0.03794826 -0.095706664 0.1189757 -0.062476713 -0.018926317
0.11905431 0.038310118 0.050407052 0.09827469 0.060324043 0.12343258 0.15757203 -0.07344312
0.06938627 0.1435657 0.016219262 0.084665 0.022593468 -0.106385395 -0.013148001 0.0051951366
-0.040424597 0.09756037 0.069866806 -0.11106868 0.06818579 0.011718076 0.0016477008 0.0043719453
0.077581875 0.11208599 0.057456985 0.107791826 -0.075659245 0.018524216 0.12671174 0.08603209
-0.027500467 0.12996247 0.15202442 -0.07540857 -0.05342455 -0.0883979 -0.056271877 0.06998813
0.08767682 0.06575166 -0.013463355 0.05843073 -0.034590404 -0.0708958 -0.082950085 -0.03396203
-0.0664419 -0.037409034 0.14577562 0.05650324 0.11350984 0.13717717 0.13530618 0.13928933
0.07737616 0.119476326 -0.021804256 0.13037011 -0.044798825 0.013324262 -0.10604308 0.019671744
-0.010539608 -0.03248601 0.08844906 -0.04525611 -0.022484258 -0.10938688 -0.10489809 0.06825653
0.002131786 0.09411067 -0.06078875 0.012192978 -0.0810757 0.12822828 -0.10009369 0.049220633
0.11902024 -0.071660794 0.021896714 -0.011856105 0.02124903 -0.0367942 0.1286701 -0.12002317
0.0015361853 0.0022342866 0.03332163 0.039247718 -0.018146412 -0.0016187262 -0.05695374 -0.073356286
-0.098615296 -0.08091111 0.06850959 0.010649891 0.061844297 0.11025966 0.0013942234 -0.08542845
0.11330457 0.0315576 -0.020826673 -0.09903422 -0.10508223 -0.029590119 0.08010901 0.044017047
-0.08867794 0.0918628 -0.07737534 -0.1578512 -0.045337975 -0.049975827 -0.1465888 0.042640824
0.021640778 0.0012901701 0.13434689 0.1236142 0.14035843 -0.030954156 0.022722848 0.1645266
0.15082845 0.0435878 0.1790101 0.08236586 0.07814959 0.117536 0.055493407 0.012819998
-0.084290065 0.046166565 -0.005249919 0.04536241 0.17707658 0.11831714 0.049949415 -0.03211291
-0.027360326 -0.025585972 0.023693029 -0.00019565044 0.0013441016 0.06432177 -0.06696684 0.053888272
0.07104176 -0.04551516 -0.07297184 -0.058016114 0.08037461 -0.035760865 0.08678889 0.17601149
-0.06745414 -0.02560438 0.1550721 0.115140975 0.006838334 0.004602014 -0.053532686 -0.04272663
-0.060529806 0.13997625 0.18152018 -0.08232404 -0.045627985 0.12818782 -0.07627767 0.017641164
-0.007390982 0.06330387 0.008950367 0.00926895 0.096313216 0.13234352 0.147576 0.07032847
00000000: 20ca 053e 5e9f e93d d02d 81bb cbb3 1abd
00000010: a367 1b3b 8285 e63c efe5 283e 268f 0a3e
00000020: c1d8 4e3d 0540 093c f32c a83d beb1 153e
00000030: c8b7 d4bc 90b6 a23d 831f 3f3c 7167 f53d
00000040: bb79 34bd 7ee3 9a3d c08d 053b 8819 283e
00000050: e978 823d 155e cd3d 28c4 d43d f87b 313b
00000060: 950a 8b3d 30ea f33d 4057 5dbd 6751 b83d
00000070: 9338 21bd 608b c2bd 810a 23bd a7e5 87bc
00000080: 1eef 14bd a4ab eb3d 7c3e fd3d c76c 7c3d
00000090: e1f4 283e ea0e 143e e0bd 093e 8251 18bd
000000a0: 239e 103e 70ef c03d 655d 7bbc 58bc 273e
000000b0: f63d 4b3d acc8 033e 4233 8e3c e63f 6a3d
000000c0: 0dc7 0d3e 23d4 123d 7af2 d13d a895 c4bd
000000d0: f2f2 ef3d 3323 f2ba 85e3 913d 62ae 433d
000000e0: df5e 823d cb27 763d 4bef 8bbc 5f01 8f3d
000000f0: 5317 033e 305b 05bd b66f 59bd 7236 8f3d
00000100: de97 babc 7c3e acb9 a1f6 bbbc a26f 1b3d
00000110: db01 c4bd 88a9 f33d 95e7 7fbd 5d0b 9bbc
00000120: bfd2 f33d 12eb 1c3d a077 4e3d 3e44 c93d
00000130: 5816 773d 38ca fc3d 905a 213e 5969 96bd
00000140: 641a 8e3d e302 133e 42de 843c d864 ad3d
00000150: f015 b93c 96e0 d9bd b76a 57bc f73b aa3b
00000160: 4394 25bd bbcd c73d 5416 8f3d fa77 e3bd
00000170: fea4 8b3d 2cfd 3f3c aaf7 d73a 8942 8f3b
00000180: 3fe3 9e3d 578d e53d 0458 6b3d f6c1 dc3d
00000190: 3cf3 9abd 19c0 973c b9c0 013e 9831 b03d
000001a0: a948 e1bc e214 053e 4aac 1b3e cf6f 9abd
000001b0: b3d3 5abd f509 b5bd 577d 66bd f055 8f3d
000001c0: e88f b33d cea8 863d 6795 5cbc 1055 6f3d
000001d0: abae 0dbd d131 91bd bce1 a9bd c51b 0bbd
000001e0: b112 88bd 373a 19bd 3446 153e f16f 673d
000001f0: d977 e83d 2c78 0c3e b48d 0a3e dda1 0e3e
00000200: 6477 9e3d 01b0 f43d d79e b2bc be7f 053e
00000210: f97e 37bd 014e 5a3c 1d2d d9bd a326 a13c
00000220: 52ae 2cbc 0d10 05bd c824 b53d 795e 39bd
00000230: e830 b8bc 3b06 e0bd cfd4 d6bd 14ca 8b3d
00000240: 6fb5 0b3b 18bd c03d a0fd 78bd 0ec5 473c
00000250: 040b a6bd 464e 033e ecfd ccbd 939b 493d
00000260: e2c0 f33d e5c2 92bd bd60 b33c 1c40 42bc
00000270: 7212 ae3c 84b5 16bd 18c2 033e b5ce f5bd
00000280: d359 c93a 1c6d 123b 437c 083d 37c2 203d
00000290: c9a7 94bc 702b d4ba 5348 69bd d23b 96bd
000002a0: d1f6 c9bd b9b4 a5bd c24e 8c3d e17c 2e3c
000002b0: 7250 7d3d d1cf e13d 60be b63a 1cf5 aebd
000002c0: 3a0c e83d 8b42 013d b39c aabc 74d2 cabd
000002d0: 5a35 d7bd fa66 f2bc 3110 a43d 384b 343d
000002e0: c89c b5bd 9022 bc3d f676 9ebd bfa3 21be
000002f0: 50b4 39bd 74b3 4cbd 601b 16be 25a8 2e3d
00000300: 0048 b13c ed1a a93a 3b92 093e 7129 fd3d
00000310: 1fba 0f3e 9293 fdbc 4425 ba3c a979 283e
00000320: c672 1a3e 1f89 323d 6c4e 373e 6faf a83d
00000330: e40c a03d b7b6 f03d 0e4d 633d f80a 523c
00000340: 45a0 acbd 2719 3d3d 8307 acbb efcd 393d
00000350: 9053 353e 4250 f23d c297 4c3d d488 03bd
00000360: c322 e0bc ac99 d1bc e217 c23c 8427 4db9
00000370: 912c b03a 22bb 833d e925 89bd f3b9 5c3d
00000380: 587e 913d 1b6e 3abd 4372 95bd 4ea2 6dbd
00000390: 729b a43d fc79 12bd 60be b13d 5b3c 343e
000003a0: 6525 8abd 47c0 d1bc 38cb 1e3e 08cf eb3d
000003b0: 1a14 e03b 7ecc 963b 1745 5bbd 1e02 2fbd
000003c0: 1aee 77bd ef55 0f3e 6de0 393e 8299 a8bd
000003d0: 69e4 3abd ab43 033e 7837 9cbd 3484 903c
000003e0: 0d30 f2bb 76a5 813d 8fa4 123c cbdc 173c
000003f0: dd3f c53d 0f85 073e 2a1e 173e 5f08 903d

decoder.weight_ih_l0 f4 [256, 32]
-0.048593737 -0.043977827 -0.08432583 -0.06731876 -0.02627654 0.06508489 -0.10354849 -0.009671611
0.059206605 0.14221862 0.05423336 0.09343534 -0.08755577 -0.047025677 0.041785777 0.027405336
0.027809512 0.06219114 0.004338861 0.0139071345 -0.17359672 0.020835558 -0.014151191 0.05664957
0.05958879 -0.006268319 0.0031351286 0.06794141 0.018102102 -0.101005375 -0.026091486 -0.05026566
-0.08494542 -0.09892168 0.13076437 0.025852846 0.11289001 0.10688605 0.07856589 0.08718574
-0.09198951 0.040551398 -0.11101115 -0.035332527 0.057839487 -0.08503198 -0.029270105 -0.035284657
0.060085405 -0.061475966 -0.07648857 0.14538234 -0.12667206 -0.030691449 0.13147245 -0.11154304
-0.07533978 0.026496602 0.11902756 0.017570103 0.052629396 0.0050728708 -0.052897215 -0.15189971
-0.07281609 0.10117477 -0.024795702 0.11790721 -0.023565719 -0.07329492 -0.01833456 -0.12765238
0.026700795 -0.10003817 0.06330078 -0.05424898 0.08215463 0.07787176 -0.0051638563 -0.09380922
-0.07921645 -0.03383146 -0.052177884 0.010573819 -0.010450439 -0.008108515 0.022377366 -0.08643754
0.09964275 -0.0035024309 0.17030463 0.028608313 0.045697816 0.031446625 0.07836451 -0.018978259
-0.09345216 -0.05337771 -0.08160857 -0.0916737 -0.09558177 -0.087134086 0.062629834 -0.08193918
-0.00021320804 0.01264937 0.0025995118 -0.03431163 -0.019268448 0.0007271338 0.110366635 -0.08051467
0.07319942 -0.03005985 -0.023000928 -0.005717212 0.03273561 -0.10881507 0.06849385 -0.04365401
0.08404594 -0.13844714 0.090390965 -0.14879796 0.073624216 -0.01153582 -0.021142924 0.06477423
0.0557427 -0.11061865 -0.034420826 -0.044219475 0.0036872546 -0.08086801 0.047490217 -0.1383279
-0.14999422 -0.053122323 -0.079874314 0.04285673 -0.064816825 -0.04948301 0.10015738 -0.052836407
0.009553457 0.08312789 0.008251059 0.10582521 -0.14181334 0.07837896 0.08924036 0.02223971
0.047055125 0.09915197 0.0031092663 -0.11669702 0.007182956 -0.08286207 0.01632458 0.020159485
0.04438689 -0.023479797 -0.042856663 0.12502347 -0.11608223 0.03624819 -0.062061436 -0.11296148
-0.12974277 -0.06896429 -0.06704992 0.07234077 -0.06885282 0.08674943 -0.0051382305 -0.07255091
0.050443295 -0.02912217 0.10005922 0.08755947 0.015805548 0.09135896 0.107223526 -0.042425096
-0.10997276 0.093163274 -0.052241042 0.0790116 0.061855856 -0.022722 0.06861014 -0.050955545
-0.10526258 0.0395544 -0.012057407 -0.0055498304 0.06742572 0.05334534 0.043059 -0.13270998
-0.036976967 0.019090489 -0.11038251 0.10602448 0.01610383 -0.06475964 0.11660223 -0.07663004
-0.10366081 -0.13033184 0.076696664 0.06970439 0.03746946 0.030018494 -0.08810926 -0.08564748
-0.0030357684 0.16033627 -0.07464053 -0.11492136 -0.09757307 -0.037801176 -0.05220057 0.12294581
-0.01928378 -0.009541964 -0.0014824477 -0.003918178 -0.020661341 0.04673964 -0.054959584 -0.14553536
-0.017170403 0.002273478 -0.15621407 0.025863644 -0.10448191 0.08643185 0.005071194 0.044003475
-0.01485418 -0.010069603 -0.060841102 -0.07261596 -0.080907054 -0.013309373 -0.05574028 0.09870296
0.013843959 0.0006337381 0.04475496 0.047342587 -0.019143304 -0.07996939 0.07409574 -0.028359996
00000000: 3a0a 47bd 1822 34bd 05b3 acbd 6bde 89bd
00000010: e641 d7bc 3a4b 853d 3b11 d4bd ad75 1ebc
00000020: a082 723d c2a1 113e cd23 5e3d 075b bf3d
00000030: 7150 b3bd ff9d 40bd 9027 2b3d 2881 e03c
00000040: c6d0 e33c 23bc 7e3d 012d 8e3b c0da 633c
00000050: 57c3 31be 55af aa3c 66da 67bc 6109 683d
00000060: 6013 743d 7966 cdbb bb76 4d3b de24 8b3d
00000070: dc4a 943c e8db cebd d0bd d5bc 5de3 4dbd
00000080: ddf7 adbd 7397 cabd 18e7 053e 59c9 d33c
00000090: e132 e73d 13e7 da3d 27e7 a03d 708e b23d
000000a0: ff64 bcbd 3919 263d d059 e3bd d7b8 10bd
000000b0: 19e9 6c3d 3f25 aebd dcc7 efbc a586 10bd
000000c0: 1d1c 763d 39ce 7bbd 0aa6 9cbd 1cdf 143e
000000d0: 52b6 01be a26c fbbc b7a0 063e ad70 e4bd
000000e0: be4b 9abd 670f d93c b9c4 f33d 2def 8f3c
000000f0: ec91 573d 533a a63b c0aa 58bd 998b 1bbe
00000100: 9a20 95bd b834 cf3d 5b20 cbbc 5679 f13d
00000110: e50c c1bc a61b 96bd 5c32 96bc 4eb7 02be
00000120: a0bb da3c d0e0 ccbd d7a3 813d 2e34 5ebd
00000130: b040 a83d 3b7b 9f3d 9135 a9bb 0c1f c0bd
00000140: 3c3c a2bd db92 0abd 7ab8 55bd d03d 2d3c
00000150: 5138 2bbc 94d9 04bc bd50 b73c 2a06 b1bd
00000160: 8011 cc3d 0a89 65bb 5664 2e3e fb5b ea3c
00000170: a22d 3b3d 2dce 003d 927d a03d 4b78 9bbc
00000180: d963 bfbd 96a2 5abd 6522 a7bd 6cbf bbbd
00000190: 60c0 c3bd 5b73 b2bd 1244 803d bbcf a7bd
000001a0: 9990 5fb9 4e3f 4f3c 925c 2a3b 5a8a 0cbd
000001b0: ddd8 9dbc 209d 3e3a e707 e23d e0e4 a4bd
000001c0: 94e9 953d 1340 f6bc 716c bcbc 7357 bbbb
000001d0: c615 063d 6fda debd 8146 8c3d 8cce 32bd
000001e0: 4720 ac3d 16c5 0dbe e61e b93d 7e5e 18be
000001f0: 4bc8 963d bc00 3dbc ed33 adbc 5aa8 843d
00000200: 7552 643d 088c e2bd dafc 0cbd 7b1f 35bd
00000210: dea5 713b 219e a5bd 1a85 423d d4a5 0dbe
00000220: 1698 19be cb96 59bd 2595 a3bd 8a8a 2f3d
00000230: afbe 84bd b2ae 4abd 501f cd3d fd6a 58bd
00000240: 1a86 1c3c f53e aa3d 732f 073c e3ba d83d
00000250: 8437 11be 2685 a03d a6c3 b63d 0d30 b63c
00000260: e0bc 403d 3010 cb3d d5c4 4b3b d9fe eebd
00000270: 015f eb3b 97b3 a9bd 20bb 853c 8125 a53c
00000280: 07cf 353d b458 c0bc 788a 2fbd 2706 003e
00000290: 85bc edbd fb78 143d 2234 7ebd 5958 e7bd
000002a0: 4adb 04be 263d 8dbd 7851 89bd 6627 943d
000002b0: b502 8dbd afa9 b13d 9a5e a8bb 9295 94bd
000002c0: a19d 4e3d 9e91 eebc d9eb cc3d 6152 b33d
000002d0: a37a 813c 681a bb3d 0298 db3d f0c5 2dbd
000002e0: 6639 e1bd 63cc be3d b4fa 55bd d5d0 a13d
000002f0: 915c 7d3d 7d23 babc 7983 8c3d c3b6 50bd
00000300: e893 d7bd cb03 223d 6e8c 45bc 5adb b5bb
00000310: 7f16 8a3d a580 5a3d a25e 303d 20e5 07be
00000320: 2975 17bd a863 9c3c 3a10 e2bd 5d23 d93d
00000330: 2eec 833c b4a0 84bd 26cd ee3d 36f0 9cbd
00000340: 1e4c d4bd b675 05be 2413 9d3d 2dc1 8e3d
00000350: 9479 193d 58e9 f53c a172 b4bd f267 afbd
00000360: bef3 46bb 312f 243e 22dd 98bd e45b ebbd
00000370: 64d4 c7bd 68d5 1abd 44d0 55bd 03cb fb3d
00000380: 05f9 9dbc e655 1cbc b14e c2ba 0f64 80bb
00000390: f941 a9bc 1172 3f3d 4d1d 61bd 3907 15be
000003a0: f2a8 8cbc a2fe 143b 95f6 1fbe fedf d33c
000003b0: 9dfa d5bd 2f03 b13d 422c a63b fd3c 343d
000003c0: f25e 73bc fafa 24bc 8534 79bd adb7 94bd
000003d0: 99b2 a5bd 8e0f 5abc eb4f 64bd c724 ca3d
000003e0: c6d1 623c 7221 263a fa50 373d 4dea 413d
000003f0: 6bd2 9cbc fec6 a3bd 82bf 973d 3953 e8bc

decoder.weight_hh_l0 f4 [256, 64]
0.00047622403 0.12434627 0.09129752 0.15025279 0.0675522 -0.058897898 -0.079799324 -0.15637712
-0.15423694 0.14369343 -0.04690953 0.009672957 -0.12682468 0.10725056 0.035853904 -0.11623749
0.04555105 0.032917637 0.07382434 -0.06718936 -0.04553575 -0.011961513 0.09576456 -0.037860356
-0.10630297 -0.09161534 0.0069105336 -0.0024765078 0.029587856 -0.08461825 -0.054478537 -0.019807283
0.083768755 0.10665854 -0.072534986 -0.11482924 0.0969607 -0.026741961 -0.0621682 -0.030662071
-0.07419314 -0.081981584 -0.072018296 0.06153108 -0.1565221 -0.051337548 -0.034322377 -0.028318686
-0.12536801 0.034749985 0.0550754 -0.037965626 -0.014916888 -7.5095115e-05 0.031172594 -0.038804878
0.07394408 -0.034865174 -0.06908333 -0.07477832 0.13784966 0.0018951552 -0.025479656 -0.09172057
0.0053672562 -0.024774047 0.02386551 0.13041028 0.007982539 0.09785726 -0.0817008 0.058209427
-0.097328976 -0.020994104 -0.058273558 0.039131906 0.013172698 -0.10876732 -0.066673286 -0.14639255
0.01331283 -0.030571977 -0.070412986 0.041499138 0.06106397 -0.09589572 -0.039279122 -0.12217448
0.015765745 -0.08024084 -0.07916673 -0.10288082 0.07232564 0.0015981938 -0.081730254 0.065978944
-0.014882576 0.026038976 -0.028828237 0.11902165 0.05859987 -0.035355967 0.06900401 0.10267435
0.04095572 0.0636144 -0.10717991 0.013125465 0.06215546 0.06030572 0.12800649 -0.06024963
0.10032764 0.05089724 -0.0922245 -0.09606946 0.0517673 0.056149054 -0.08175984 0.08974911
-0.04926422 0.10717027 -0.015951933 -0.0038849856 0.029404124 0.06316319 0.08236368 0.06823396
-0.00483455 -0.05640103 0.043199908 0.059977595 0.07934391 0.06464889 -0.049401756 -0.04202887
-0.11959697 -0.0093768425 -0.0019587902 -0.0014741255 -0.0006222547 -0.09263204 -0.07114108 -0.01807819
0.02998963 0.051657632 -0.10661471 0.09398879 -0.062858246 0.0653482 0.08236021 -0.12522186
-0.0501982 -0.041565925 -0.12612441 0.062472686 0.036185883 -0.03935406 0.17110781 0.083129145
-0.082144976 0.041737348 -0.03406488 0.044247277 -0.073448 0.11528763 0.061429605 -0.063638866
0.013793131 -0.10207268 -0.1315018 -0.016536443 0.02577542 0.01349217 0.09811057 0.019958017
0.121562414 -0.07739875 0.07404806 -0.025641918 0.10400564 0.1389917 -0.09816157 -0.043030914
-0.0919543 -0.01051698 0.13877252 -0.096129924 -0.018592611 -0.050685465 0.06600235 0.00028145593
-0.05246183 0.071148306 -0.0704784 0.07238083 -0.022807237 0.06382749 0.042412285 0.009114235
-0.1535587 -0.0287417 -0.09138364 0.059697766 -0.029340476 -0.022863537 -0.13341923 0.033915937
-0.03577604 0.009792332 0.037726436 -0.08435223 -0.014025905 0.07667687 -0.0017177223 -0.15306418
0.07154601 -0.06294582 0.024264498 -0.11601205 -0.05561682 -0.069009215 0.07625627 -0.039423894
0.09609256 0.095094375 0.10455062 0.058988154 -0.06675436 0.13228709 0.14478604 -0.07049459
-0.066765964 0.12213487 -0.034978535 -0.114673026 0.08191139 0.12983526 0.020423185 -0.07982366
-0.038275283 0.07372474 0.04931118 0.049701788 0.016110798 -0.07762545 -0.048406865 0.07948769
0.03602268 -0.056504913 -0.07175974 0.031923167 0.09640978 -0.01860472 -0.039643757 0.00695848
00000000: b5ad f939 42a9 fe3d 32fa ba3d dedb 193e
00000010: cf58 8a3d ec3e 71bd d46d a3bd 5321 20be
00000020: 4af0 1dbe 5f24 133e 3524 40bd 527b 1e3c
00000030: 54de 01be 2ea6 db3d 8bdb 123d ec0d eebd
00000040: bd93 3a3d a5d4 063d 3731 973d 939a 89bd
00000050: b283 3abd 39fa 43bc 3620 c43d 7613 1bbd
00000060: 5fb5 d9bd d3a0 bbbd c271 e23b e84c 22bb
00000070: 3b62 f23c 554c adbd e324 5fbd e242 a2bc
00000080: f48e ab3d cb6f da3d 398d 94bd 982b ebbd
00000090: 5593 c63d f511 dbbc 15a4 7ebd 062f fbbc
000000a0: 93f2 97bd f6e5 a7bd 547e 93bd 0408 7c3d
000000b0: 5447 20be 5247 52bd 9f95 0cbd 97fc e7bc
000000c0: 7960 00be 0056 0e3d be96 613d d881 1bbd
000000d0: f765 74bc 627c 9db8 ab5d ff3c ddf1 1ebd
000000e0: fe6f 973d c9ce 0ebd 907b 8dbd 6025 99bd
000000f0: 7628 0d3e db66 f83a b6ba d0bc ffd7 bbbd
00000100: cfdf af3b f1f2 cabc 9a81 c33c 468a 053e
00000110: 32c9 023c 6369 c83d c052 a7bd 026d 6e3d
00000120: 6a54 c7bd d4fb abbc 41b0 6ebd c748 203d
00000130: 4dd2 573c 67c1 debd 018c 88bd eee7 15be
00000140: 0e1e 5a3c 1572 fabc af34 90bd 00fb 293d
00000150: 371e 7a3d fa64 c4bd 25e3 20bd 9d36 fabd
00000160: 2a27 813c 4f55 a4bd 2b22 a2bd 2eb3 d2bd
00000170: 771f 943d 7c7a d13a 3162 a7bd f81f 873d
00000180: 0cd6 73bc b14f d53c 3229 ecbc 9fc1 f33d
00000190: 6b06 703d 6bd1 10bd f951 8d3d ee46 d23d
000001a0: 2fc1 273d 4448 823d 2481 dbbd 310c 573c
000001b0: b996 7e3d 2103 773d 2214 033e 51c8 76bd
000001c0: 9478 cd3d a079 503d 33e0 bcbd 11c0 c4bd
000001d0: f309 543d 8dfc 653d b471 a7bd 62ce b73d
000001e0: 47c9 49bd 167c db3d a1ad 82bc 3e9b 7ebb
000001f0: ebe0 f03c b45b 813d 4aae a83d 3fbe 8b3d
00000200: 256b 9ebb c404 67bd 63f2 303d 11ab 753d
00000210: 0f7f a23d a366 843d 7f59 4abd 7726 2cbd
00000220: 42ef f4bd 54a1 19bc 0c5f 00bb 7237 c1ba
00000230: ce1e 23ba deb5 bdbd 6ab2 91bd b618 94bc
00000240: d0ac f53c f496 533d d058 dabd 327d c03d
00000250: d3bb 80bd 47d5 853d 78ac a83d 293a 00be
00000260: a19c 4dbd 0841 2abd c226 01be 5ce3 7f3d
00000270: a637 143d b931 21bd e336 2f3e 9d3f aa3d
00000280: a03b a8bd c8f4 2a3d 9e87 0bbd a23c 353d
00000290: e86b 96bd ec1b ec3d 9c9d 7b3d 1855 82bd
000002a0: 96fc 613c 7b0b d1bd 68a8 06be 6f77 87bc
000002b0: f926 d33c 430e 5d3c 32ee c83d ff7e a33c
000002c0: b7f5 f83d 3c83 9ebd 82a6 973d 000f d2bc
000002d0: e900 d53d d753 0e3e ef08 c9bd 2f41 30bd
000002e0: 8952 bcbd 694f 2cbc 621a 0e3e c4df c4bd
000002f0: 884f 98bc 909b 4fbd 3d2c 873d 6090 9339
00000300: 37e2 56bd 34b6 913d fb56 90bd 673c 943d
00000310: 3ed6 babc fdb7 823d 81b8 2d3d df53 153c
00000320: 7e3e 1dbe b773 ebbc 5927 bbbd a585 743d
00000330: 705b f0bc 504c bbbc 0d9f 08be 70eb 0a3d
00000340: e689 12bd 0470 203c 0987 1a3d ddc0 acbd
00000350: e9cc 65bc c308 9d3d 3225 e1ba dbbc 1cbe
00000360: b786 923d bde9 80bd 57c6 c63c ba97 edbd
00000370: 76ce 63bd b454 8dbd 3f2c 9c3d f37a 21bd
00000380: 2dcc c43d d7c0 c23d a31e d63d 909d 713d
00000390: 83b6 88bd 4476 073e cb42 143e 785f 90bd
000003a0: 98bc 88bd d921 fa3d a745 0fbd b1d9 eabd
000003b0: 29c1 a73d 89f3 043e 864e a73c 967a a3bd
000003c0: 8bc6 1cbd fffc 963d 85fa 493d 1a94 4b3d
000003d0: cbfa 833c 18fa 9ebd 4746 46bd 71ca a23d
000003e0: 858c 133d b271 67bd c5f6 92bd dec1 023d
000003f0: 7e72 c53d ed68 98bc 7e61 22bd f603 e43b

decoder.bias_ih_l0 f4 [256]
0.074164845 0.09828493 -0.07968549 -0.015289961 0.07111574 0.15727708 -0.0796879 0.07601428
-0.0059853056 0.01902218 0.11833685 0.0755896 0.15167537 -0.032359704 0.053495336 0.08839173
0.088413164 0.044176295 0.0107813645 0.08166068 0.067703515 0.11546131 0.059119545 0.06601769
0.12087157 0.011465544 -0.07281745 0.016252343 0.05425021 0.058338817 -0.049745087 0.015361776
-0.042079397 -0.06283558 -0.04446239 0.0046595815 0.104428105 -0.0447829 0.09126726 -0.026719702
-0.07751828 0.14182085 0.061133478 0.041718245 0.11921604 -0.06276388 -0.021709347 0.061196554
0.10607156 0.12456813 0.08202015 -0.048229966 0.12228066 0.13403124 0.072094694 0.1186454
-0.003887045 -0.031119972 -0.06698998 0.022398267 -0.08055843 0.13321793 0.016487587 0.076044455
0.0895656 0.046654984 -0.077785745 -0.034255743 0.15386721 -0.037428994 0.094088055 0.022022827
0.09033685 0.019640623 0.021000082 0.024793258 -0.05536026 0.07156177 0.10501687 0.1280121
0.019913936 -0.047606032 0.06839109 0.13251363 0.011050424 0.04934203 0.0014249198 0.046729863
0.12765354 0.07696952 -0.027786447 0.07047589 0.10585499 0.15394232 0.1440682 0.0032346633
-0.05794168 -0.06679618 -0.06714354 -0.018379144 -0.053529542 0.13289677 0.06599054 0.14700635
0.0036686095 0.10750817 -0.07971463 0.011508089 -0.08006119 0.014568023 -0.032149453 0.032596625
-0.022518855 0.02294648 -0.061270043 0.11752808 -0.014555226 -0.008928437 0.077647075 -0.088104844
0.07088398 -0.03077147 0.114738576 0.024944535 0.114029616 0.016153743 -0.011076634 0.06359631
-0.038004395 0.044778418 0.053664334 -0.04838214 -0.1659842 -0.12909792 -0.05577775 -0.12221521
-0.020298967 -0.032561842 -0.076712616 0.097161725 -0.034172922 0.06892044 -0.11993811 -0.12774341
0.06121707 0.04164326 -0.12931165 0.11920804 -0.050391626 0.0902571 0.13875116 0.0008717283
-0.032796394 0.016114233 -0.02509409 -0.14486057 0.11660153 0.13153379 0.05682994 -0.0040855417
-0.076980434 0.030714085 0.044729974 0.06879057 -0.119128935 -0.062299397 -0.003227591 -0.1482221
0.089142144 -0.0016607674 0.026985468 -0.15221603 0.07773597 -0.0026729587 -0.06657544 -0.10777394
0.037011806 -0.05933945 -0.05741914 0.06518569 0.047824 0.105400145 0.07690006 0.10718391
0.028160727 0.016297149 -0.04988714 0.004196211 -0.037919942 0.08999535 0.029033186 0.09759973
0.053579245 -0.0063779135 0.049476434 -0.015361238 -0.013353101 -0.023282414 0.016007194 -0.006063752
0.02182381 0.10816995 -0.043295857 0.16638865 0.051948875 -0.046655916 -0.06774016 0.07277327
0.13274974 -0.026124798 0.050898828 0.12013666 0.020841178 0.054254543 0.113765046 -0.024917295
0.080031954 0.053409677 0.048513267 0.04480511 0.12110652 0.11561421 0.0013519514 0.08340813
-0.019436033 0.077202484 0.06099185 0.04164515 -0.023534859 0.15096457 0.11400691 0.1383151
0.16317493 0.053257894 0.094471976 -0.038734645 0.044382744 0.061482582 0.0076186825 0.15545881
0.17516227 0.07331022 -0.008201495 0.095912986 -0.073748946 0.013421713 0.07150412 0.019990006
-0.07641876 0.029371213 0.17907165 0.072668806 0.023823895 0.09095233 0.023511825 0.017654944
00000000: bde3 973d 9c49 c93d 2532 a3bd bf82 7abc
00000010: 21a5 913d 3e0d 213e 6933 a3bd 60ad 9b3d
00000020: 6220 c4bb 67d4 9b3c 975a f23d b8ce 9a3d
00000030: ca50 1b3e 9c8b 04bd ed1d 5b3d b906 b53d
00000040: f611 b53d 34f2 343d 52a4 303c b73d a73d
00000050: 24a8 8a3d fb76 ec3d 5627 723d 4834 873d
00000060: 848b f73d fad9 3b3c 5121 95bd a223 853c
00000070: 7835 5e3d aff4 6e3d 81c1 4bbd f5af 7b3c
00000080: 725b 2cbd f1af 80bd 321e 36bd 67af 983b
00000090: 67de d53d 466e 37bd 54ea ba3d 47e3 dabc
000000a0: e7c1 9ebd 7c39 113e 1967 7a3d c0e0 2a3d
000000b0: 8a27 f43d 598a 80bd cdd7 b1bc 3da9 7a3d
000000c0: 0c3c d93d 931d ff3d 2efa a73d c98c 45bd
000000d0: 486e fa3d 7c3f 093e 62a6 933d 5cfc f23d
000000e0: cbbd 7ebb 50ef febc 0b32 89bd 927c b73c
000000f0: d1fb a4bd 486a 083e fa10 873c 32bd 9b3d
00000100: 2b6e b73d 4c19 3f3d 224e 9fbd c04f 0cbd
00000110: 5e8f 1d3e 254f 19bd 3db1 c03d 3769 b43c
00000120: 8702 b93d 5fe5 a03c 5d08 ac3c 3b1b cb3c
00000130: 71c1 62bd fa8e 923d 1613 d73d 9b15 033e
00000140: 8d22 a33c 8bfe 42bd a110 8c3d a7b1 073e
00000150: d60c 353c de1a 4a3d 60c4 ba3a d067 3f3d
00000160: 9cb7 023e 32a2 9d3d 67a0 e3bc aa55 903d
00000170: 80ca d83d 0ea3 1d3e 9d86 133e a5fc 533b
00000180: 4154 6dbd 70cc 88bd 8d82 89bd dc8f 96bc
00000190: cb41 5bbd 1716 083e 0c26 873d d588 163e
000001a0: 0e6d 703b 3e2d dc3d 6d41 a3bd 6c8c 3c3c
000001b0: 1ff7 a3bd b8ae 6e3c 25af 03bd 0a84 053d
000001c0: 7679 b8bc 42fa bb3c 4cf6 7abd 90b2 f03d
000001d0: 0b79 6ebc 9448 12bc 6e05 9f3d 5070 b4bd
000001e0: 9f2b 913d 7314 fcbc 0ffc ea3d 7b58 cc3c
000001f0: 5c88 e93d db54 843c c57a 35bc c83e 823d
00000200: 7faa 1bbd 9369 373d 22cf 5b3d 5a2c 46bd
00000210: c3f7 29be 3f32 04be 3677 64bd f84b fabd
00000220: 054a a6bc 915f 05bd 811b 9dbd bafc c63d
00000230: e8f8 0bbd 2926 8d3d 1da2 f5bd 2bcf 02be
00000240: c0be 7a3d 1f92 2a3d 466a 04be 5823 f43d
00000250: 7367 4ebd b7d8 b83d c914 0e3e b284 643a
00000260: 8355 06bd ff01 843c 1f92 cdbc 5456 14be
00000270: c8cc ee3d cbb0 063e 83c6 683d 02e0 85bb
00000280: eba7 9dbd 1b9c fb3c c736 373d 12e2 8c3d
00000290: dff9 f3bd a72d 7fbd fe85 53bb 89c7 17be
000002a0: 2890 b63d 1bae d9ba a110 dd3c 85de 1bbe
000002b0: 0934 9f3d ce2c 2fbb b458 88bd 95b8 dcbd
000002c0: b199 173d ec0d 73bd 5530 6bbd 1380 853d
000002d0: 19e3 433d 08dc d73d c77d 9d3d 3d83 db3d
000002e0: 53b1 e63c 9981 853c 7556 4cbd 5f80 893b
000002f0: f151 1bbd 7b4f b83d 01d7 ed3c 5ee2 c73d
00000300: e975 5b3d d1fd d0bb cda7 4a3d b4ad 7bbc
00000310: f7c6 5abc c3ba bebc 8521 833c 70b2 c6bb
00000320: d9c7 b23c 3588 dd3d ff56 31bd c961 2a3e
00000330: 58c8 543d 461a 3fbd 5abb 8abd 270a 953d
00000340: 8cef 073e ac03 d6bc 4a7b 503d 360a f63d
00000350: 1ebb aa3c 033a 5e3d a6fd e83d 5b1f ccbc
00000360: cbe7 a33d 1bc4 5a3d d9b5 463d 9085 373d
00000370: b206 f83d 25c7 ec3d f633 b13a e2d1 aa3d
00000380: 5138 9fbc 561c 9e3d 97d2 793d 1b94 2a3d
00000390: 2dcc c0bc 7596 1a3e 747c e93d 79a2 0d3e
000003a0: 5417 273e f324 5a3d 867a c13d 38a8 1ebd
000003b0: aeca 353d 29d5 7b3d 24a6 f93b 9830 1f3e
000003c0: bd5d 333e ab23 963d 905f 06bc 076e c43d
000003d0: b009 97bd bfe6 5b3c c170 923d 15c2 a33c
000003e0: 7081 9cbd e69b f03c 8f5e 373e 62d3 943d
000003f0: 542a c33c 3745 ba3d df9b c03c 1aa1 903c
